DNN/models/model.ckpt (torch, 4828 bytes, 9 tensors)

layers.0.weight f4 [16, 1]
000000 2e 2a 90 d6 6a 3d 84 d6 bf b2 1b 56 46 cb 78 56
       -7.925542e+13 -7.269965e+13 4.2798003e+13 6.8387984e+13
000010 32 84 d3 d5 68 2d 98 d6 24 63 9f d6 6b 79 15 d7
       -2.907059e+13 -8.366039e+13 -8.762408e+13 -1.6434872e+14
000020 e9 e0 7c 56 a6 ff 25 d6 ba dc df d6 76 94 bb d6
       6.951073e+13 -4.5629355e+13 -1.2306955e+14 -1.03123155e+14
000030 fa 91 12 d7 f6 3b 49 55 28 c2 91 56 99 58 00 d7
       -1.6115566e+14 1.382871e+13 8.013154e+13 -1.4111801e+14

layers.0.bias f4 [16]
000000 41 eb 5a d2 86 cf 48 d2 39 13 f3 d1 34 35 42 d2
       -2.3506244e+11 -2.1561878e+11 -1.30499944e+11 -2.0852906e+11
000010 e8 98 a0 d1 18 16 67 d2 e9 08 72 d2 cf ec e2 d2
       -8.622001e+10 -2.4812703e+11 -2.598829e+11 -4.873178e+11
000020 71 65 45 d2 0a 13 fc d1 98 f8 a9 d2 54 6c 8e d2
       -2.1195262e+11 -1.353314e+11 -3.650101e+11 -3.058514e+11
000030 59 92 de d2 35 15 1d d1 a0 8e 63 d2 d4 e5 c2 d2
       -4.7796902e+11 -4.2166604e+10 -2.443376e+11 -4.1853977e+11

layers.2.weight f4 [8, 16]
000000 d1 82 c1 d3 db 4b 3c d3 8f 3e f6 d3 2d 0f 8a d4
       -1.6622468e+12 -8.087265e+11 -2.115223e+12 -4.743681e+12
000010 ae ab 4a d4 86 e7 4f d4 2f fd e2 d2 86 c5 6c d1
       -3.4818548e+12 -3.5717702e+12 -4.8745516e+11 -6.3557886e+10
000020 f5 2f 8f d3 c5 46 a5 d3 e5 09 5a d4 5f cd a7 d4
       -1.2299698e+12 -1.4197138e+12 -3.7458755e+12 -5.765641e+12
000030 52 73 82 d4 7e a7 3d d4 e9 76 db d3 ee dc da d4
       -4.482244e+12 -3.2582355e+12 -1.8851856e+12 -7.5200756e+12
000040 19 25 2e d5 bb 73 a9 d4 cf 99 5d d5 3f 7c f8 d5
       -1.1967147e+13 -5.822329e+12 -1.5228292e+13 -3.4151565e+13
000050 4d 63 b6 d5 0b 19 bb d5 c2 45 4c d4 78 13 d5 d2
       -2.5067201e+13 -2.571453e+13 -3.5093747e+12 -4.5757733e+11
000060 86 db 00 d5 6b bc 14 d5 c9 37 c4 d5 50 02 17 d6
       -8.855021e+12 -1.0221061e+13 -2.6967984e+13 -4.1509047e+13
000070 69 ca ea d5 95 ac aa d5 44 80 45 d5 b5 f5 44 d6
       -3.2269383e+13 -2.3457276e+13 -1.3572168e+13 -5.4139896e+13
000080 f4 9b 03 be f0 27 3e 3d df b4 dd e0 9b 22 31 e1
       -0.1285246 0.046424806 -1.2780511e+20 -2.0422296e+20
000090 e8 ff 42 3e b5 09 67 3c 16 af a4 3d 71 1e 49 be
       0.19042933 0.014101435 0.080412075 -0.19640519
0000a0 13 0b 34 e1 d2 44 01 3d a9 4d 51 be 20 dd 0a be
       -2.0757574e+20 0.031559773 -0.20439781 -0.13560915
0000b0 49 64 43 3e 18 46 0f e0 85 8d 4f e1 0e 8b cc bc
       0.19081225 -4.1295862e+19 -2.392921e+20 -0.02496865
0000c0 f5 19 14 c1 fe a7 0a c1 06 ac 12 c1 86 fa 70 c1
       -9.256337 -8.666014 -9.166998 -15.061163
0000d0 f5 20 4f c0 a4 de 18 c1 13 28 13 c1 66 8e 87 c1
       -3.2363865 -9.554356 -9.197284 -16.94453
0000e0 c9 89 79 c1 5d 7a 9a c0 dc 78 4a c1 db 8f 29 c1
       -15.596139 -4.827437 -12.654507 -10.597621
0000f0 0d 44 85 c1 3c de 34 c0 71 20 81 c1 82 25 6b c1
       -16.658228 -2.826064 -16.14084 -14.696657
000100 a0 83 0b be c8 02 4c be a0 8c ec bc 20 22 29 3c
       -0.1362443 -0.19922936 -0.028875649 0.010323077
000110 0f 22 e6 c0 08 43 b7 bd 8b 2d ac c1 e2 ac 1c c2
       -7.1916575 -0.08948332 -21.522238 -39.16883
000120 50 e3 e5 bd 05 23 2f c1 3f ec ee c1 50 db c8 c1
       -0.11224997 -10.94605 -29.865355 -25.107086
000130 cc bf 19 c2 a8 5f 60 bd a0 da 15 c2 90 9b 07 c2
       -38.4373 -0.054778725 -37.4635 -33.901917
000140 fe 35 7b be 0d bf d1 bd cc 2d 8c d0 72 2f 1d d1
       -0.24532315 -0.10241518 -1.8814493e+10 -4.2194117e+10
000150 b0 39 b5 3d e8 9b 2b be 80 92 fc 3b b4 fa 8d bd
       0.08848894 -0.16758692 0.007707894 -0.069325835
000160 19 06 23 d0 60 e4 f3 3c b0 d0 a1 bd 60 69 18 bd
       -1.0940343e+10 0.029771984 -0.07901132 -0.03720987
000170 ae 6c 7f 3e 92 ed d7 d0 37 de 79 d0 94 1b f6 bd
       0.24943802 -2.8981367e+10 -1.6768359e+10 -0.12016979
000180 57 d4 05 c2 38 b1 f5 c1 0c e6 08 c2 cf c4 5c c2
       -33.457363 -30.711533 -34.224655 -55.192196
000190 20 d2 30 c1 d3 85 0c c2 02 02 06 c2 a0 0b 75 c2
       -11.0513 -35.130688 -33.50196 -61.261353
0001a0 0a 07 60 c2 bd 0d 87 c1 65 eb 39 c2 0e 64 1b c2
       -56.006874 -16.881708 -46.479877 -38.84771
0001b0 6d b1 70 c2 f5 d1 2a c1 ea 09 6c c2 60 20 53 c2
       -60.173267 -10.676259 -59.00968 -52.781616
0001c0 46 8c db d3 ae a1 55 d3 33 b0 0b d4 9c a2 9c d4
       -1.8859025e+12 -9.175406e+11 -2.3998263e+12 -5.381944e+12
0001d0 a3 f0 65 d4 c1 e0 6b d4 e3 c3 00 d3 89 50 86 d1
       -3.950339e+12 -4.0523522e+12 -5.5304225e+11 -7.21096e+10
0001e0 05 74 a2 d3 b1 83 bb d3 33 60 77 d4 4b 61 be d4
       -1.3954624e+12 -1.6107366e+12 -4.2498835e+12 -6.5414087e+12
0001f0 a9 00 94 d4 19 2c 57 d4 53 fe f8 d3 a1 4f f8 d4
       -5.08533e+12 -3.6966312e+12 -2.1388375e+12 -8.5319027e+12

layers.2.bias f4 [8]
000000 69 7b 91 cf 2e ec 02 d1 1b 29 2b c7 1d fb 81 be
       -4.8815683e+09 -3.514426e+10 -43817.105 -0.25386897
000010 39 33 e6 3c fb 52 64 cb 89 30 33 be 83 0e a5 cf
       0.028100597 -1.4963451e+07 -0.17498983 -5.5383834e+09

layers.4.weight f4 [10, 8]
000000 f7 e9 a8 be 88 ad 7d bd ec 48 56 be 4e e1 2b 3e
       -0.32991 -0.06193307 -0.20926255 0.16785166
000010 e2 37 12 3e 66 f6 1b be d6 e9 23 be d8 06 a3 be
       0.1427913 -0.15230712 -0.1600717 -0.3184116
000020 d8 f9 d8 bd 0a e9 80 be e4 68 71 be 40 fc 0d 3d
       -0.10594529 -0.25177795 -0.23575169 0.034664392
000030 cd ca a3 3e 51 dd 5a be bc 61 a2 be 26 69 2e 3e
       0.31990662 -0.21373488 -0.3171519 0.17032298
000040 ae 6a 0c be 79 eb 53 be 28 b3 b9 bd 60 4e 40 3c
       -0.1371257 -0.20695294 -0.090673745 0.011737436
000050 d7 7b a5 be bb d4 54 be a5 92 12 be 6a df f1 bd
       -0.32321045 -0.20784275 -0.14313753 -0.11810191
000060 19 5f 26 be 57 93 ab be 1a 19 72 be a8 72 a4 3d
       -0.16247214 -0.3351085 -0.23642388 0.080296814
000070 50 9a 79 be ba e1 6d 3e 10 a0 c8 3d b4 c2 92 be
       -0.24375272 0.23230639 0.097961545 -0.28664172
000080 ee d1 29 3e dd 7b 99 be 64 9d 71 e1 96 b0 0a 3e
       0.16583988 -0.29977313 -2.785629e+20 0.13543925
000090 39 ef a9 3e 84 92 d1 bd b8 46 18 be 59 ce 8a be
       0.33190325 -0.10233024 -0.14870727 -0.27110556
0000a0 60 cd 4b bd 9b 90 7a be d0 8e bd bd 2c 6a 01 3e
       -0.049756408 -0.24469225 -0.09255755 0.12638158
0000b0 a4 97 11 3e 1a 1d 1e be f8 f4 9d 3d ae 52 1c 3e
       0.14218003 -0.15440789 0.0771274 0.15265915
0000c0 a0 ec 81 3d a2 d9 8d be e3 9e 56 5f 31 ae 99 3e
       0.06343961 -0.27705103 1.5465048e+19 0.3001571
0000d0 10 49 b2 be 6a 22 69 3e bc ce 88 be bb b8 20 be
       -0.34821367 0.22767034 -0.26720226 -0.15695469
0000e0 e0 10 20 3d 16 3b a7 be a8 61 84 bc a6 52 18 3e
       0.039078593 -0.32662266 -0.016159847 0.14875278
0000f0 81 d3 10 bc 20 9d 86 be b4 f4 08 3e 95 1a 2d be
       -0.008839489 -0.26291752 0.13374597 -0.16904671
000100 b9 b4 82 be 1a 1f b3 be 2d b7 32 bd a5 12 34 be
       -0.25528505 -0.34984666 -0.04363172 -0.17585237
000110 b0 1e 11 3d 18 f0 95 be 4d f2 64 bd ce 9a 17 be
       0.035429657 -0.2928474 -0.05589514 -0.14805147
000120 ea e3 4e d5 67 eb 45 d6 05 a6 8b 60 b4 39 a8 42
       -1.4217392e+13 -5.440371e+13 8.050189e+19 84.1127
000130 02 60 be 42 47 f7 05 d2 63 dd a3 42 d3 e0 3c d6
       95.187515 -1.4384482e+11 81.932396 -5.191845e+13

layers.4.bias f4 [10]
000000 22 64 87 be b6 76 03 3e 00 4f 00 be b1 12 3a be
       -0.26443583 0.12838253 -0.12530136 -0.18171193
000010 a3 b9 1f c9 7a 79 94 be f7 e0 0d 47 35 fc ee 3e
       -654234.2 -0.2899893 36320.965 0.46676794
000020 0a 79 87 3d 12 9f ed cd
       0.06614883 -4.9832813e+08

layers.6.weight f4 [8, 10]
000000 54 97 9a 3d 20 eb 68 bd 26 3d 41 be 43 bf 92 3e
       0.07548395 -0.056864858 -0.18870983 0.28661546
000010 7a 95 fb bb b8 7a 34 3d f8 35 36 bd 8c 12 31 3e
       -0.007677731 0.044062346 -0.044485062 0.17292231
000020 95 b4 dd bd 49 9f 68 d6 58 d0 1a 3d 96 bf 31 be
       -0.10825459 -6.3942706e+13 0.03779635 -0.1735824
000030 d0 54 62 be cc 09 5f be 87 ec 83 3e c2 e3 6c be
       -0.22102666 -0.21781081 0.25766394 -0.23133758
000040 00 80 9c 37 e0 29 c0 3c 60 24 f3 3c 03 36 8b d6
       1.8656254e-05 0.023457468 0.02968043 -7.653205e+13
000050 c4 3c 9b 3d 80 01 b0 bc 10 52 3c bd 3e ee 44 3e
       0.075799495 -0.02148509 -0.0459767 0.19231507
000060 c7 0b 8a be 35 09 24 be 57 87 89 3e bd 3d 9d 3e
       -0.2696211 -0.16019137 0.2686107 0.30711165
000070 c2 05 22 be 7b ca 34 d6 26 63 45 be 67 7e 52 3e
       -0.15822509 -4.9695435e+13 -0.19276103 0.20556031
000080 38 1b fb 3d 9c 43 92 3e 63 bc c5 bc 95 10 80 be
       0.12261051 0.28567207 -0.024137681 -0.2501265
000090 b8 fb 68 be 88 6e 09 3e 96 6a 2e bc 9a d8 88 be
       -0.22752273 0.1342107 -0.010645529 -0.26727754
0000a0 b3 37 52 be ca 4f 39 3e dc 18 44 be c4 57 87 bd
       -0.2052906 0.18096843 -0.19150108 -0.06608537
0000b0 82 78 ec bd 20 30 1f bd 91 a7 a0 3e b0 4a 0a 3d
       -0.115464225 -0.038864255 0.31377843 0.033762634
0000c0 fa 13 8d bd 46 4f 83 d5 e0 ce 68 be 9b a7 32 be
       -0.06888576 -1.8047063e+13 -0.22735167 -0.17446749
0000d0 80 cc 24 be f8 50 01 3d 48 01 1e 3d f7 69 8d 3e
       -0.16093636 0.03157136 0.03857544 0.27619907
0000e0 24 a6 fc bd 50 61 3b 3e 0e 84 ed bd 37 62 2f be
       -0.12336376 0.1829884 -0.11597453 -0.1712731
0000f0 50 2c e1 3d dc 9a 5b 3b 6a a4 9a be 62 2c 8c be
       0.1099478 0.0033509051 -0.30203563 -0.2737761
000100 70 96 0c e1 9c bd 04 3e a2 7f db e0 bb dd de 3e
       -1.6208652e+20 0.12962955 -1.2653231e+20 0.43528542
000110 98 cc 5d bd 37 85 8b e1 d5 e8 91 3e 16 21 0a 3e
       -0.054150194 -3.2171207e+20 0.2849795 0.13489184
000120 d9 04 2d be fd 7c 9e 3e 3b 98 57 be b0 21 11 bd
       -0.1689638 0.30954733 -0.21054165 -0.035432518
000130 7e c6 09 3e 08 36 f6 3d e0 8c 64 be 2b b6 8f d6
       0.13454625 0.120220244 -0.22319365 -7.900628e+13

layers.6.bias f4 [8]
000000 a9 bc d5 ca 8e d1 ff ca 16 1d a6 ca c9 77 f8 3d
       -7.0037325e+06 -8.382663e+06 -5.443211e+06 0.12132222
000010 75 4c f1 c9 c2 c5 3a be 87 e4 04 ca 65 0b 04 cb
       -1.9767186e+06 -0.18239501 -2.1773138e+06 -8.653669e+06

layers.8.weight f4 [1, 8]
000000 db 36 b4 d6 48 56 6e d6 5f 62 5c d6 5d 6b 0e 3f
       -9.907385e+13 -6.5513586e+13 -6.0578765e+13 0.55632573
000010 72 49 65 d6 34 bf a1 bd c1 04 31 e1 d1 01 ba d6
       -6.30259e+13 -0.07897797 -2.0408852e+20 -1.0225848e+14
