DNN/models/model.ckpt (torch, 10612 bytes, 5 tensors)

layers.0.weight f4 [16, 117]
00000000: 58d4 8ebe 2a0d b33d 8407 7b3d 9c81 49bb
00000010: 62b0 a13d b6de 983c b678 b3bc 6f65 0b3d
00000020: 6305 2e3d a802 573c 9165 91bc bbbc 86bc
00000030: d4c3 87bc f7d6 6abc d161 a93c 9c3e 5a3c
00000040: 1698 453d 724d ac3c e1f0 b73d 3be9 883d
00000050: 7203 8a3d 81f4 6cbd 96b5 853d 38a9 963d
00000060: 720b 783d 0036 2dbd 853b 523d ab17 913d
00000070: 19db b6bd 671c 843d 2145 633d 3f53 a7bd
00000080: f374 46bc 0101 edbc 8742 6ebc 653d 203d
00000090: 2f28 bfbc 137f 92bd 4ceb 1a3d 72f4 4e3d
000000a0: 897b 8dbc a752 b63d 2a82 f1bc b551 8ebd
000000b0: 96ac 93bd e033 a9bd acfb 7d3d 25e7 02bd
000000c0: ddad 0a3d 4292 86bd 15b5 86bd db63 893d
000000d0: ec2b 023d 5603 21bd 1d4f 443d 2033 5abd
000000e0: bff8 0ebc cce1 87bd 3c83 453c aa0e 7bbc
000000f0: c2cb 94bd 3f66 a7bd 2220 01bd 474a 343c
00000100: 4f81 3abd 49db 8bbd 0c33 413d 3526 9f3c
00000110: 2ba8 ad3d bc3d 953d eac7 283d 0cc4 693d
00000120: 4158 99bd f7a4 61bd 7be2 513d dd3e b23d
00000130: 538c 6f3d a3d0 30bd 5b1f 773d 5f4e cabd
00000140: b6a0 fe3c c37a a5bc 54a6 6a3d f4e8 a83d
00000150: 908c aa3d 85f4 b03d 6ac8 5e3d e9ac c9bc
00000160: b800 a4bb fc5d acbc d38f 533d 6a67 963a
00000170: 0a21 50bd f391 49bd e794 92bc 459a f23c
00000180: 529e 913d cc5e 363c a72d 89bd f7cc 453d
00000190: 0471 4cbd 6d6e 533d f295 4a3d adc0 c53b
000001a0: d343 f6bb 5997 af3c c807 0d3d 51c1 943d
000001b0: 6463 2dbd ea1b 7a3d 7f1c 853a 73f4 903c
000001c0: 84c6 8dbd 3582 fd3b 70a3 a93d dc88 2a3d
000001d0: 3465 2cbb 18e7 813b 915e ca3c fbaa 8b3d
000001e0: 06f3 bb3d e1dd d2bb a423 953c 2609 26bc
000001f0: 4302 463d 4056 2fbd 1eeb 6c3d b0db 853c
00000200: 65d9 93bb 1dfe a93c f61c 8c3d a532 ffbc
00000210: 7a12 bebd 74c5 59bb f6be 92bd e854 713d
00000220: 8de2 bb3d 21f0 be3c c02e c23d 44f3 7e3d
00000230: 9557 0abd 802f 9e3d 693c abbd 988d 98bd
00000240: df81 51bd 97de 10bd 622c 423c 7672 0f3d
00000250: afc5 bd3d 1dd5 e9bb 1e2f 54bd f2ea dd3c
00000260: 6798 db3b 649a 72bd aeba 0fbc 1c1f f6bc
00000270: 258b 5f3d d3d9 dd3d 3f81 c73d 9743 363c
00000280: a5c5 c5bc dd1f 893d 8e18 00bc e808 413d
00000290: 2ed3 b5bd 7c9a cf3b 482c 1dbc e709 7f3d
000002a0: 4b57 c6bd 7272 17bd 38a1 373e 0ce7 dbbc
000002b0: 9382 eebc e97f d83c 39a7 893d 6553 063d
000002c0: 21fd 8f3d f32f 113d 113f fabc 42d9 593c
000002d0: 3751 ca3c 8dc7 093d 242d 973b ba60 40bd
000002e0: 35df 7ebd 8c7c 833b 4afc 943e a142 58bd
000002f0: 2d1a a6bc e462 423d b151 ff3b bf96 4d3d
00000300: b7cf 04bd 1803 24bd cd1f 0e3c 8c9d 543d
00000310: 231e 46bd d44b 2dbc 9703 a63c 7030 153d
00000320: 5af7 653d 537d 743d d4ee b63e 946a ce3b
00000330: d2b1 a93a 2122 8e3c 9d36 133e c917 0b3d
00000340: fc2b c13b 4dd9 8a3d 8456 f1bd 0f23 cf3d
00000350: 0c32 7abd dc8a 3cbd d9b3 b5bd d3db 883d
00000360: 47b9 0dbc 3d12 c0bd 39bf 983e b6a8 ec3c
00000370: 1fef 963d 4b10 0a3e 19bc 913d 12e1 813c
00000380: 7d63 08bd 9683 513d 05a8 bc3b 5628 25bd
00000390: f17b 563d 9152 ab3d 7892 36bc 2686 1a3d
000003a0: 924f bfbd 76a8 0a3c 4c16 39bd 99d8 a6bd
000003b0: d0bb 82bc 55c9 f3bc 30f8 3c3d 86c4 953d
000003c0: ffa9 903d 52ab 8db8 2d9d 0abd 649b 523d
000003d0: b210 9bbd d508 b33b 98fc 70bd 4afa b23b
000003e0: dcbc 71bd b147 38bc 6cf7 23bd 4e8a 203a
000003f0: 9b2a 723b df86 92bd 2741 403d 3956 9d3d
-0.2789638 0.08742745 0.061286464 -0.003074742 0.078949705 0.018660884 -0.021908145 0.03403228
0.042485606 0.013123192 -0.017748626 -0.016447416 -0.01657287 -0.014333478 0.020676525 0.013320591
0.048240744 0.021033023 0.08981491 0.0668511 0.067389384 -0.057850365 0.065287754 0.07356495
0.06055779 -0.042287827 0.051326293 0.070845924 -0.08928508 0.0645073 0.05548585 -0.08170175
-0.012112844 -0.028931143 -0.014542229 0.03912105 -0.02333459 -0.07153144 0.037822053 0.05052609
-0.01727082 0.089024834 -0.029481012 -0.06949178 -0.072106525 -0.082618475 0.06200759 -0.031958718
0.033857215 -0.06570865 -0.065775074 0.06708499 0.03178017 -0.039309822 0.04792701 -0.053271413
-0.008726298 -0.06634864 0.0120552145 -0.01532332 -0.07265426 -0.08173799 -0.031524785 0.011004037
-0.045533475 -0.06828935 0.047167823 0.019427398 0.08479341 0.072871655 0.041206278 0.05707173
-0.07487536 -0.055088963 0.05124138 0.087033965 0.058483433 -0.04316772 0.060332637 -0.09878229
0.031082492 -0.020200139 0.05728753 0.08247557 0.083275914 0.086403884 0.05439035 -0.024618583
-0.0050049685 -0.021040909 0.051650833 0.0011474912 -0.05081276 -0.049211454 -0.017893268 0.029614577
0.07110275 0.011131 -0.066981606 0.048291173 -0.049912468 0.051618982 0.049459405 0.0060349316
-0.0075154095 0.021434473 0.03443125 0.07263435 -0.042331114 0.061061777 0.0010155587 0.017694687
-0.069226295 0.007736469 0.08283126 0.041634426 -0.002630544 0.003964316 0.024703296 0.06819721
0.091772124 -0.0064351414 0.018205471 -0.010134017 0.048342 -0.042806864 0.057841413 0.016340107
-0.0045119994 0.020751053 0.06841461 -0.031152079 -0.09280868 -0.0033229263 -0.07165329 0.058918864
0.091740705 0.023307862 0.09481573 0.062243715 -0.03377493 0.07723904 -0.08361132 -0.07448882
-0.051149245 -0.03536853 0.011851402 0.035021268 0.09266221 -0.007136001 -0.051802747 0.02708957
0.0067015174 -0.05922927 -0.008772535 -0.030044131 0.054576058 0.10832562 0.097414486 0.011124513
-0.024142096 0.066955306 -0.007818354 0.047127634 -0.0887817 0.0063355546 -0.009593077 0.062265303
-0.096846186 -0.036974378 0.17932594 -0.02684357 -0.029114997 0.02642818 0.06721348 0.032794375
0.070307024 0.03544612 -0.03054765 0.013296427 0.02469693 0.033637572 0.0046135355 -0.046967246
-0.062224586 0.00401265 0.2909873 -0.052797917 -0.020276153 0.04745759 0.007791721 0.05019259
-0.032424655 -0.040042013 0.008674574 0.05190806 -0.048368584 -0.010577161 0.020265384 0.036423147
0.056144096 0.05968983 0.35729086 0.006299326 0.0012946671 0.017350258 0.14376302 0.03395823
0.005895136 0.06779728 -0.1178408 0.10114109 -0.061082885 -0.046030864 -0.08872194 0.06682553
-0.008650131 -0.09378479 0.2983339 0.028889041 0.073698275 0.13482778 0.07115955 0.015854392
-0.033298004 0.05115088 0.005757334 -0.04032167 0.052364293 0.08365358 -0.011143319 0.03772559
-0.09341349 0.008463016 -0.04518728 -0.081467815 -0.015958697 -0.029759089 0.046135128 0.073128745
0.07063674 -6.755315e-05 -0.0338413 0.051417723 -0.07571544 0.0054636993 -0.058834642 0.0054619657
-0.059018 -0.011247561 -0.04003088 0.00061241246 0.0036951664 -0.07154631 0.046937134 0.07682461

layers.0.bias f4 [16]
00000000: 7497 a23c f708 843d 19d5 a8bd 3589 5abd
00000010: 0375 6ebc 6738 b6bd a39f b1bd ec2b 90bd
00000020: fbf3 743d 2017 4bbc 2865 a9bd 3e31 74bd
00000030: 72fe 3f3d d81a 553d 3288 833d 2c1f f3bc
0.01984761 0.064470224 -0.0824377 -0.053353507 -0.014554265 -0.08897477 -0.086730264 -0.070396274
0.05980299 -0.01239565 -0.08271247 -0.059617274 0.046873517 0.052027553 0.064224616 -0.02967795

layers.2.weight f4 [8, 16]
00000000: a110 523d fa16 603d 8eb4 b0bd ce97 58bd
00000010: 359e 543d 99a8 3b3e 3368 adbd bbb5 133e
00000020: f745 903d 36e2 48be bc0e e83d 2c99 87be
00000030: 961c 18be 8d90 26bd 870c e5bd 0eb5 793d
00000040: 28d4 30bd b605 903c a0d0 4b3e 462e 743e
00000050: c587 733d 2777 3a3e cc45 2d3e 5222 3abe
00000060: 3180 8ebd a821 efbd e8f5 0d3e fd79 babd
00000070: 409b b6bb 1a29 9d3c d952 5dbd c7e7 1b3e
00000080: 2b46 433e 2433 00bd 9486 4d3d 1522 18be
00000090: 2148 203d 12be fe3d 3b6c 5bbe c37b 023e
000000a0: 8c62 e73d 78fb 703d aa33 793e 96e5 ef3d
000000b0: 402f a6bc 7b0f 58be dde7 23be e64d 563e
000000c0: 34f8 123e 0d33 663e 4fb2 b53d e5c2 29be
000000d0: c13d 413e 50a0 e03c 6be7 a0bd 0055 8b3e
000000e0: 9164 5b3e e01b e63c 7416 f93d c457 09bb
000000f0: 8424 a0bd 80b3 943e a17e 90bd 1333 9c3e
00000100: a9c2 633d cef9 283b d27a bb3b 2754 633e
00000110: 3072 4cbe e086 06be 3f28 8a3d 0d63 89bd
00000120: b2de dbbd 809e 133b 6cd6 34be 3305 dd3d
00000130: 0854 203d 0e1b 65bd d2ea 0bbe 6a99 46be
00000140: 5f62 62be 14cc c93d 772b 033e 92a3 413e
00000150: e263 263e ec67 e43d 6c8c fb3d eaa6 adbd
00000160: 8d41 14be fcc9 1ebe e6c1 533e 7fea 033e
00000170: 8802 17bd eaf8 8cbb 5ec0 19be f9d6 323d
00000180: c247 453e 1165 42be 8f1a 413e 6062 52be
00000190: 0e7d db3d 3732 0d3e 774e 27be 38c5 8cbe
000001a0: dac3 43bb a04e a3bd a07f 1ebd 59fc 97be
000001b0: 5638 7f3e 1ec4 443e d6b6 6a3c 74ef 7ebd
000001c0: 84bb 7a3e 5070 f23d 1639 e8bd 70c1 debd
000001d0: 7dc4 ecbd 2fa1 4dbd 3a07 3abe e7e5 493e
000001e0: 3196 97bd 2602 123e fe1e 073e f57c 4e3d
000001f0: 6206 12be f7cc 5e3e 8292 8d3e 3e7d 6ebc
0.05128539 0.054709412 -0.08628188 -0.052879147 0.05190869 0.18326034 -0.0846714 0.14424793
0.07044595 -0.19617543 0.11330935 -0.26484048 -0.14854655 -0.040665198 -0.1118403 0.060963683
-0.043171078 0.017580848 0.19903803 0.23845777 0.05945565 0.18209516 0.16921157 -0.18177155
-0.06958044 -0.11676341 0.13863337 -0.09105299 -0.0055727065 0.019184638 -0.054034088 0.15225135
0.19069736 -0.03129877 0.05017717 -0.14856751 0.039131287 0.12438597 -0.21428005 0.12742524
0.11298093 0.05883357 0.24336115 0.11713712 -0.020286202 -0.21099655 -0.16006418 0.20928153
0.14352494 0.22480412 0.088719 -0.16578253 0.18871213 0.027420193 -0.078566395 0.27213287
0.21425082 0.028089464 0.12162486 -0.0020956853 -0.07819465 0.29043198 -0.070554025 0.30507717
0.055605564 0.002578366 0.0057214284 0.2220007 -0.19965434 -0.13137388 0.067459576 -0.067083456
-0.10735835 0.0022524893 -0.1765992 0.10792007 0.03914264 -0.055934004 -0.13663796 -0.1939446
-0.22107838 0.09853378 0.1280955 0.18910053 0.1624904 0.11152634 0.12282643 -0.08479102
-0.1447813 -0.15506738 0.20679435 0.12882422 -0.03686765 -0.004302134 -0.15014789 0.043662045
0.19265655 -0.18983866 0.18857788 -0.2054534 0.10717212 0.13788687 -0.16338526 -0.27494216
-0.0029871375 -0.07973981 -0.03869593 -0.29684713 0.24923834 0.19215438 0.014325818 -0.06224008
0.24485594 0.11837828 -0.11339013 -0.10876739 -0.11560915 -0.050202545 -0.18166819 0.19716607
-0.074016936 0.14258632 0.13195416 0.050412137 -0.14260247 0.21757875 0.2765084 -0.014556227

layers.2.bias f4 [8]
00000000: 720c 7a3e 825d e3bd cad0 5d3e fbbd 6c3e
00000010: 0ba0 593d 164d 4bbe c179 253e 93f8 123e
0.2441881 -0.111018196 0.21661678 0.23119347 0.053131144 -0.19853625 0.16159727 0.14352636

layers.4.weight f4 [1, 8]
00000000: c4c2 4a3e ce07 f7bd 2ddf 6c3d 04e6 d43e
00000010: 0e2b 2cbe d623 783c 5a1e 18be cdec 5a3e
0.1980086 -0.120620355 0.057830025 0.41581738 -0.16813299 0.015145263 -0.14855328 0.21379395
